{"format": "graph-model", "generatedBy": "2.18.0", "convertedBy": "TensorFlow.js Converter v4.22.0", "signature": {"inputs": {"rgb_input": {"name": "rgb_input:0", "dtype": "DT_FLOAT", "tensorShape": {"dim": [{"size": "-1"}, {"size": "96"}, {"size": "96"}, {"size": "3"}]}}}, "outputs": {"output_0": {"name": "Identity:0", "dtype": "DT_FLOAT", "tensorShape": {"dim": [{"size": "-1"}, {"size": "4"}]}}}}, "modelTopology": {"node": [{"name": "StatefulPartitionedCall/end_to_end_model_1/strided_slice_2/stack", "op": "Const", "attr": {"value": {"tensor": {"dtype": "DT_INT32", "tensorShape": {"dim": [{"size": "2"}]}}}, "dtype": {"type": "DT_INT32"}}}, {"name": "StatefulPartitionedCall/end_to_end_model_1/strided_slice_2/stack_1", "op": "Const", "attr": {"value": {"tensor": {"dtype": "DT_INT32", "tensorShape": {"dim": [{"size": "2"}]}}}, "dtype": {"type": "DT_INT32"}}}, {"name": "StatefulPartitionedCall/end_to_end_model_1/strided_slice_2/stack_2", "op": "Const", "attr": {"value": {"tensor": {"dtype": "DT_INT32", "tensorShape": {"dim": [{"size": "2"}]}}}, "dtype": {"type": "DT_INT32"}}}, {"name": "StatefulPartitionedCall/end_to_end_model_1/shared_feature_extractor_1/conv2d_2_1/convolution/ReadVariableOp", "op": "Const", "attr": {"value": {"tensor": {"dtype": "DT_FLOAT", "tensorShape": {"dim": [{"size": "3"}, {"size": "3"}, {"size": "1"}, {"size": "8"}]}}}, "dtype": {"type": "DT_FLOAT"}}}, {"name": "StatefulPartitionedCall/end_to_end_model_1/shared_feature_extractor_1/conv2d_2_1/Squeeze", "op": "Const", "attr": {"value": {"tensor": {"dtype": "DT_FLOAT", "tensorShape": {"dim": [{"size": "8"}]}}}, "dtype": {"type": "DT_FLOAT"}}}, {"name": "StatefulPartitionedCall/end_to_end_model_1/shared_feature_extractor_1/separable_conv2d_4_1/separable_conv2d/ReadVariableOp", "op": "Const", "attr": {"value": {"tensor": {"dtype": "DT_FLOAT", "tensorShape": {"dim": [{"size": "3"}, {"size": "3"}, {"size": "8"}, {"size": "1"}]}}}, "dtype": {"type": "DT_FLOAT"}}}, {"name": "StatefulPartitionedCall/end_to_end_model_1/shared_feature_extractor_1/separable_conv2d_4_1/separable_conv2d/ReadVariableOp_1", "op": "Const", "attr": {"value": {"tensor": {"dtype": "DT_FLOAT", "tensorShape": {"dim": [{"size": "1"}, {"size": "1"}, {"size": "8"}, {"size": "24"}]}}}, "dtype": {"type": "DT_FLOAT"}}}, {"name": "StatefulPartitionedCall/end_to_end_model_1/shared_feature_extractor_1/separable_conv2d_4_1/Squeeze", "op": "Const", "attr": {"value": {"tensor": {"dtype": "DT_FLOAT", "tensorShape": {"dim": [{"size": "24"}]}}}, "dtype": {"type": "DT_FLOAT"}}}, {"name": "StatefulPartitionedCall/end_to_end_model_1/shared_feature_extractor_1/separable_conv2d_5_1/separable_conv2d/ReadVariableOp", "op": "Const", "attr": {"value": {"tensor": {"dtype": "DT_FLOAT", "tensorShape": {"dim": [{"size": "3"}, {"size": "3"}, {"size": "24"}, {"size": "1"}]}}}, "dtype": {"type": "DT_FLOAT"}}}, {"name": "StatefulPartitionedCall/end_to_end_model_1/shared_feature_extractor_1/separable_conv2d_5_1/separable_conv2d/ReadVariableOp_1", "op": "Const", "attr": {"value": {"tensor": {"dtype": "DT_FLOAT", "tensorShape": {"dim": [{"size": "1"}, {"size": "1"}, {"size": "24"}, {"size": "24"}]}}}, "dtype": {"type": "DT_FLOAT"}}}, {"name": "StatefulPartitionedCall/end_to_end_model_1/shared_feature_extractor_1/separable_conv2d_5_1/Squeeze", "op": "Const", "attr": {"value": {"tensor": {"dtype": "DT_FLOAT", "tensorShape": {"dim": [{"size": "24"}]}}}, "dtype": {"type": "DT_FLOAT"}}}, {"name": "StatefulPartitionedCall/end_to_end_model_1/shared_feature_extractor_1/separable_conv2d_6_1/separable_conv2d/ReadVariableOp", "op": "Const", "attr": {"value": {"tensor": {"dtype": "DT_FLOAT", "tensorShape": {"dim": [{"size": "3"}, {"size": "3"}, {"size": "24"}, {"size": "1"}]}}}, "dtype": {"type": "DT_FLOAT"}}}, {"name": "StatefulPartitionedCall/end_to_end_model_1/shared_feature_extractor_1/separable_conv2d_6_1/separable_conv2d/ReadVariableOp_1", "op": "Const", "attr": {"value": {"tensor": {"dtype": "DT_FLOAT", "tensorShape": {"dim": [{"size": "1"}, {"size": "1"}, {"size": "24"}, {"size": "24"}]}}}, "dtype": {"type": "DT_FLOAT"}}}, {"name": "StatefulPartitionedCall/end_to_end_model_1/shared_feature_extractor_1/separable_conv2d_6_1/Squeeze", "op": "Const", "attr": {"value": {"tensor": {"dtype": "DT_FLOAT", "tensorShape": {"dim": [{"size": "24"}]}}}, "dtype": {"type": "DT_FLOAT"}}}, {"name": "StatefulPartitionedCall/end_to_end_model_1/shared_feature_extractor_1/separable_conv2d_7_1/separable_conv2d/ReadVariableOp", "op": "Const", "attr": {"value": {"tensor": {"dtype": "DT_FLOAT", "tensorShape": {"dim": [{"size": "3"}, {"size": "3"}, {"size": "24"}, {"size": "1"}]}}}, "dtype": {"type": "DT_FLOAT"}}}, {"name": "StatefulPartitionedCall/end_to_end_model_1/shared_feature_extractor_1/separable_conv2d_7_1/separable_conv2d/ReadVariableOp_1", "op": "Const", "attr": {"value": {"tensor": {"dtype": "DT_FLOAT", "tensorShape": {"dim": [{"size": "1"}, {"size": "1"}, {"size": "24"}, {"size": "16"}]}}}, "dtype": {"type": "DT_FLOAT"}}}, {"name": "StatefulPartitionedCall/end_to_end_model_1/shared_feature_extractor_1/separable_conv2d_7_1/Squeeze", "op": "Const", "attr": {"value": {"tensor": {"dtype": "DT_FLOAT", "tensorShape": {"dim": [{"size": "16"}]}}}, "dtype": {"type": "DT_FLOAT"}}}, {"name": "StatefulPartitionedCall/end_to_end_model_1/strided_slice_1/stack", "op": "Const", "attr": {"value": {"tensor": {"dtype": "DT_INT32", "tensorShape": {"dim": [{"size": "2"}]}}}, "dtype": {"type": "DT_INT32"}}}, {"name": "StatefulPartitionedCall/end_to_end_model_1/strided_slice_1/stack_1", "op": "Const", "attr": {"value": {"tensor": {"dtype": "DT_INT32", "tensorShape": {"dim": [{"size": "2"}]}}}, "dtype": {"type": "DT_INT32"}}}, {"name": "StatefulPartitionedCall/end_to_end_model_1/strided_slice_1/stack_2", "op": "Const", "attr": {"value": {"tensor": {"dtype": "DT_INT32", "tensorShape": {"dim": [{"size": "2"}]}}}, "dtype": {"type": "DT_INT32"}}}, {"name": "StatefulPartitionedCall/end_to_end_model_1/shared_feature_extractor_3/conv2d_2_1/convolution/ReadVariableOp", "op": "Const", "attr": {"value": {"tensor": {"dtype": "DT_FLOAT", "tensorShape": {"dim": [{"size": "3"}, {"size": "3"}, {"size": "1"}, {"size": "8"}]}}}, "dtype": {"type": "DT_FLOAT"}}}, {"name": "StatefulPartitionedCall/end_to_end_model_1/shared_feature_extractor_3/conv2d_2_1/Squeeze", "op": "Const", "attr": {"value": {"tensor": {"dtype": "DT_FLOAT", "tensorShape": {"dim": [{"size": "8"}]}}}, "dtype": {"type": "DT_FLOAT"}}}, {"name": "StatefulPartitionedCall/end_to_end_model_1/shared_feature_extractor_3/separable_conv2d_4_1/separable_conv2d/ReadVariableOp", "op": "Const", "attr": {"value": {"tensor": {"dtype": "DT_FLOAT", "tensorShape": {"dim": [{"size": "3"}, {"size": "3"}, {"size": "8"}, {"size": "1"}]}}}, "dtype": {"type": "DT_FLOAT"}}}, {"name": "StatefulPartitionedCall/end_to_end_model_1/shared_feature_extractor_3/separable_conv2d_4_1/separable_conv2d/ReadVariableOp_1", "op": "Const", "attr": {"value": {"tensor": {"dtype": "DT_FLOAT", "tensorShape": {"dim": [{"size": "1"}, {"size": "1"}, {"size": "8"}, {"size": "24"}]}}}, "dtype": {"type": "DT_FLOAT"}}}, {"name": "StatefulPartitionedCall/end_to_end_model_1/shared_feature_extractor_3/separable_conv2d_4_1/Squeeze", "op": "Const", "attr": {"value": {"tensor": {"dtype": "DT_FLOAT", "tensorShape": {"dim": [{"size": "24"}]}}}, "dtype": {"type": "DT_FLOAT"}}}, {"name": "StatefulPartitionedCall/end_to_end_model_1/shared_feature_extractor_3/separable_conv2d_5_1/separable_conv2d/ReadVariableOp", "op": "Const", "attr": {"value": {"tensor": {"dtype": "DT_FLOAT", "tensorShape": {"dim": [{"size": "3"}, {"size": "3"}, {"size": "24"}, {"size": "1"}]}}}, "dtype": {"type": "DT_FLOAT"}}}, {"name": "StatefulPartitionedCall/end_to_end_model_1/shared_feature_extractor_3/separable_conv2d_5_1/separable_conv2d/ReadVariableOp_1", "op": "Const", "attr": {"value": {"tensor": {"dtype": "DT_FLOAT", "tensorShape": {"dim": [{"size": "1"}, {"size": "1"}, {"size": "24"}, {"size": "24"}]}}}, "dtype": {"type": "DT_FLOAT"}}}, {"name": "StatefulPartitionedCall/end_to_end_model_1/shared_feature_extractor_3/separable_conv2d_5_1/Squeeze", "op": "Const", "attr": {"value": {"tensor": {"dtype": "DT_FLOAT", "tensorShape": {"dim": [{"size": "24"}]}}}, "dtype": {"type": "DT_FLOAT"}}}, {"name": "StatefulPartitionedCall/end_to_end_model_1/shared_feature_extractor_3/separable_conv2d_6_1/separable_conv2d/ReadVariableOp", "op": "Const", "attr": {"value": {"tensor": {"dtype": "DT_FLOAT", "tensorShape": {"dim": [{"size": "3"}, {"size": "3"}, {"size": "24"}, {"size": "1"}]}}}, "dtype": {"type": "DT_FLOAT"}}}, {"name": "StatefulPartitionedCall/end_to_end_model_1/shared_feature_extractor_3/separable_conv2d_6_1/separable_conv2d/ReadVariableOp_1", "op": "Const", "attr": {"value": {"tensor": {"dtype": "DT_FLOAT", "tensorShape": {"dim": [{"size": "1"}, {"size": "1"}, {"size": "24"}, {"size": "24"}]}}}, "dtype": {"type": "DT_FLOAT"}}}, {"name": "StatefulPartitionedCall/end_to_end_model_1/shared_feature_extractor_3/separable_conv2d_6_1/Squeeze", "op": "Const", "attr": {"value": {"tensor": {"dtype": "DT_FLOAT", "tensorShape": {"dim": [{"size": "24"}]}}}, "dtype": {"type": "DT_FLOAT"}}}, {"name": "StatefulPartitionedCall/end_to_end_model_1/shared_feature_extractor_3/separable_conv2d_7_1/separable_conv2d/ReadVariableOp", "op": "Const", "attr": {"value": {"tensor": {"dtype": "DT_FLOAT", "tensorShape": {"dim": [{"size": "3"}, {"size": "3"}, {"size": "24"}, {"size": "1"}]}}}, "dtype": {"type": "DT_FLOAT"}}}, {"name": "StatefulPartitionedCall/end_to_end_model_1/shared_feature_extractor_3/separable_conv2d_7_1/separable_conv2d/ReadVariableOp_1", "op": "Const", "attr": {"value": {"tensor": {"dtype": "DT_FLOAT", "tensorShape": {"dim": [{"size": "1"}, {"size": "1"}, {"size": "24"}, {"size": "16"}]}}}, "dtype": {"type": "DT_FLOAT"}}}, {"name": "StatefulPartitionedCall/end_to_end_model_1/shared_feature_extractor_3/separable_conv2d_7_1/Squeeze", "op": "Const", "attr": {"value": {"tensor": {"dtype": "DT_FLOAT", "tensorShape": {"dim": [{"size": "16"}]}}}, "dtype": {"type": "DT_FLOAT"}}}, {"name": "StatefulPartitionedCall/end_to_end_model_1/strided_slice/stack", "op": "Const", "attr": {"value": {"tensor": {"dtype": "DT_INT32", "tensorShape": {"dim": [{"size": "2"}]}}}, "dtype": {"type": "DT_INT32"}}}, {"name": "StatefulPartitionedCall/end_to_end_model_1/strided_slice/stack_1", "op": "Const", "attr": {"value": {"tensor": {"dtype": "DT_INT32", "tensorShape": {"dim": [{"size": "2"}]}}}, "dtype": {"type": "DT_INT32"}}}, {"name": "StatefulPartitionedCall/end_to_end_model_1/strided_slice/stack_2", "op": "Const", "attr": {"value": {"tensor": {"dtype": "DT_INT32", "tensorShape": {"dim": [{"size": "2"}]}}}, "dtype": {"type": "DT_INT32"}}}, {"name": "StatefulPartitionedCall/end_to_end_model_1/shared_feature_extractor_5/conv2d_2_1/convolution/ReadVariableOp", "op": "Const", "attr": {"value": {"tensor": {"dtype": "DT_FLOAT", "tensorShape": {"dim": [{"size": "3"}, {"size": "3"}, {"size": "1"}, {"size": "8"}]}}}, "dtype": {"type": "DT_FLOAT"}}}, {"name": "StatefulPartitionedCall/end_to_end_model_1/shared_feature_extractor_5/conv2d_2_1/Squeeze", "op": "Const", "attr": {"value": {"tensor": {"dtype": "DT_FLOAT", "tensorShape": {"dim": [{"size": "8"}]}}}, "dtype": {"type": "DT_FLOAT"}}}, {"name": "StatefulPartitionedCall/end_to_end_model_1/shared_feature_extractor_5/separable_conv2d_4_1/separable_conv2d/ReadVariableOp", "op": "Const", "attr": {"value": {"tensor": {"dtype": "DT_FLOAT", "tensorShape": {"dim": [{"size": "3"}, {"size": "3"}, {"size": "8"}, {"size": "1"}]}}}, "dtype": {"type": "DT_FLOAT"}}}, {"name": "StatefulPartitionedCall/end_to_end_model_1/shared_feature_extractor_5/separable_conv2d_4_1/separable_conv2d/ReadVariableOp_1", "op": "Const", "attr": {"value": {"tensor": {"dtype": "DT_FLOAT", "tensorShape": {"dim": [{"size": "1"}, {"size": "1"}, {"size": "8"}, {"size": "24"}]}}}, "dtype": {"type": "DT_FLOAT"}}}, {"name": "StatefulPartitionedCall/end_to_end_model_1/shared_feature_extractor_5/separable_conv2d_4_1/Squeeze", "op": "Const", "attr": {"value": {"tensor": {"dtype": "DT_FLOAT", "tensorShape": {"dim": [{"size": "24"}]}}}, "dtype": {"type": "DT_FLOAT"}}}, {"name": "StatefulPartitionedCall/end_to_end_model_1/shared_feature_extractor_5/separable_conv2d_5_1/separable_conv2d/ReadVariableOp", "op": "Const", "attr": {"value": {"tensor": {"dtype": "DT_FLOAT", "tensorShape": {"dim": [{"size": "3"}, {"size": "3"}, {"size": "24"}, {"size": "1"}]}}}, "dtype": {"type": "DT_FLOAT"}}}, {"name": "StatefulPartitionedCall/end_to_end_model_1/shared_feature_extractor_5/separable_conv2d_5_1/separable_conv2d/ReadVariableOp_1", "op": "Const", "attr": {"value": {"tensor": {"dtype": "DT_FLOAT", "tensorShape": {"dim": [{"size": "1"}, {"size": "1"}, {"size": "24"}, {"size": "24"}]}}}, "dtype": {"type": "DT_FLOAT"}}}, {"name": "StatefulPartitionedCall/end_to_end_model_1/shared_feature_extractor_5/separable_conv2d_5_1/Squeeze", "op": "Const", "attr": {"value": {"tensor": {"dtype": "DT_FLOAT", "tensorShape": {"dim": [{"size": "24"}]}}}, "dtype": {"type": "DT_FLOAT"}}}, {"name": "StatefulPartitionedCall/end_to_end_model_1/shared_feature_extractor_5/separable_conv2d_6_1/separable_conv2d/ReadVariableOp", "op": "Const", "attr": {"value": {"tensor": {"dtype": "DT_FLOAT", "tensorShape": {"dim": [{"size": "3"}, {"size": "3"}, {"size": "24"}, {"size": "1"}]}}}, "dtype": {"type": "DT_FLOAT"}}}, {"name": "StatefulPartitionedCall/end_to_end_model_1/shared_feature_extractor_5/separable_conv2d_6_1/separable_conv2d/ReadVariableOp_1", "op": "Const", "attr": {"value": {"tensor": {"dtype": "DT_FLOAT", "tensorShape": {"dim": [{"size": "1"}, {"size": "1"}, {"size": "24"}, {"size": "24"}]}}}, "dtype": {"type": "DT_FLOAT"}}}, {"name": "StatefulPartitionedCall/end_to_end_model_1/shared_feature_extractor_5/separable_conv2d_6_1/Squeeze", "op": "Const", "attr": {"value": {"tensor": {"dtype": "DT_FLOAT", "tensorShape": {"dim": [{"size": "24"}]}}}, "dtype": {"type": "DT_FLOAT"}}}, {"name": "StatefulPartitionedCall/end_to_end_model_1/shared_feature_extractor_5/separable_conv2d_7_1/separable_conv2d/ReadVariableOp", "op": "Const", "attr": {"value": {"tensor": {"dtype": "DT_FLOAT", "tensorShape": {"dim": [{"size": "3"}, {"size": "3"}, {"size": "24"}, {"size": "1"}]}}}, "dtype": {"type": "DT_FLOAT"}}}, {"name": "StatefulPartitionedCall/end_to_end_model_1/shared_feature_extractor_5/separable_conv2d_7_1/separable_conv2d/ReadVariableOp_1", "op": "Const", "attr": {"value": {"tensor": {"dtype": "DT_FLOAT", "tensorShape": {"dim": [{"size": "1"}, {"size": "1"}, {"size": "24"}, {"size": "16"}]}}}, "dtype": {"type": "DT_FLOAT"}}}, {"name": "StatefulPartitionedCall/end_to_end_model_1/shared_feature_extractor_5/separable_conv2d_7_1/Squeeze", "op": "Const", "attr": {"value": {"tensor": {"dtype": "DT_FLOAT", "tensorShape": {"dim": [{"size": "16"}]}}}, "dtype": {"type": "DT_FLOAT"}}}, {"name": "StatefulPartitionedCall/end_to_end_model_1/concatenate_1_1/concat/axis", "op": "Const", "attr": {"value": {"tensor": {"dtype": "DT_INT32", "tensorShape": {}}}, "dtype": {"type": "DT_INT32"}}}, {"name": "StatefulPartitionedCall/end_to_end_model_1/classifier_head_1/conv2d_3_1/convolution/ReadVariableOp", "op": "Const", "attr": {"value": {"tensor": {"dtype": "DT_FLOAT", "tensorShape": {"dim": [{"size": "1"}, {"size": "1"}, {"size": "48"}, {"size": "16"}]}}}, "dtype": {"type": "DT_FLOAT"}}}, {"name": "StatefulPartitionedCall/end_to_end_model_1/classifier_head_1/conv2d_3_1/Squeeze", "op": "Const", "attr": {"value": {"tensor": {"dtype": "DT_FLOAT", "tensorShape": {"dim": [{"size": "16"}]}}}, "dtype": {"type": "DT_FLOAT"}}}, {"name": "StatefulPartitionedCall/end_to_end_model_1/classifier_head_1/global_average_pooling2d_1_1/Mean/reduction_indices", "op": "Const", "attr": {"value": {"tensor": {"dtype": "DT_INT32", "tensorShape": {"dim": [{"size": "2"}]}}}, "dtype": {"type": "DT_INT32"}}}, {"name": "StatefulPartitionedCall/end_to_end_model_1/classifier_head_1/class_output_1/Cast/ReadVariableOp", "op": "Const", "attr": {"value": {"tensor": {"dtype": "DT_FLOAT", "tensorShape": {"dim": [{"size": "16"}, {"size": "4"}]}}}, "dtype": {"type": "DT_FLOAT"}}}, {"name": "StatefulPartitionedCall/end_to_end_model_1/classifier_head_1/class_output_1/BiasAdd/ReadVariableOp", "op": "Const", "attr": {"value": {"tensor": {"dtype": "DT_FLOAT", "tensorShape": {"dim": [{"size": "4"}]}}}, "dtype": {"type": "DT_FLOAT"}}}, {"name": "rgb_input", "op": "Placeholder", "attr": {"shape": {"shape": {"dim": [{"size": "-1"}, {"size": "96"}, {"size": "96"}, {"size": "3"}]}}, "dtype": {"type": "DT_FLOAT"}}}, {"name": "StatefulPartitionedCall/end_to_end_model_1/strided_slice_2", "op": "StridedSlice", "input": ["rgb_input", "StatefulPartitionedCall/end_to_end_model_1/strided_slice_2/stack", "StatefulPartitionedCall/end_to_end_model_1/strided_slice_2/stack_1", "StatefulPartitionedCall/end_to_end_model_1/strided_slice_2/stack_2"], "attr": {"shrink_axis_mask": {"i": "0"}, "Index": {"type": "DT_INT32"}, "new_axis_mask": {"i": "0"}, "begin_mask": {"i": "0"}, "T": {"type": "DT_FLOAT"}, "end_mask": {"i": "0"}, "ellipsis_mask": {"i": "1"}}}, {"name": "StatefulPartitionedCall/end_to_end_model_1/strided_slice_1", "op": "StridedSlice", "input": ["rgb_input", "StatefulPartitionedCall/end_to_end_model_1/strided_slice_1/stack", "StatefulPartitionedCall/end_to_end_model_1/strided_slice_1/stack_1", "StatefulPartitionedCall/end_to_end_model_1/strided_slice_1/stack_2"], "attr": {"shrink_axis_mask": {"i": "0"}, "new_axis_mask": {"i": "0"}, "Index": {"type": "DT_INT32"}, "begin_mask": {"i": "0"}, "end_mask": {"i": "0"}, "T": {"type": "DT_FLOAT"}, "ellipsis_mask": {"i": "1"}}}, {"name": "StatefulPartitionedCall/end_to_end_model_1/strided_slice", "op": "StridedSlice", "input": ["rgb_input", "StatefulPartitionedCall/end_to_end_model_1/strided_slice/stack", "StatefulPartitionedCall/end_to_end_model_1/strided_slice/stack_1", "StatefulPartitionedCall/end_to_end_model_1/strided_slice/stack_2"], "attr": {"shrink_axis_mask": {"i": "0"}, "new_axis_mask": {"i": "0"}, "Index": {"type": "DT_INT32"}, "begin_mask": {"i": "0"}, "T": {"type": "DT_FLOAT"}, "end_mask": {"i": "0"}, "ellipsis_mask": {"i": "1"}}}, {"name": "StatefulPartitionedCall/end_to_end_model_1/shared_feature_extractor_1/conv2d_2_1/Relu", "op": "_FusedConv2D", "input": ["StatefulPartitionedCall/end_to_end_model_1/strided_slice_2", "StatefulPartitionedCall/end_to_end_model_1/shared_feature_extractor_1/conv2d_2_1/convolution/ReadVariableOp", "StatefulPartitionedCall/end_to_end_model_1/shared_feature_extractor_1/conv2d_2_1/Squeeze"], "device": "/device:CPU:0", "attr": {"num_host_args": {"i": "0"}, "data_format": {"s": "TkhXQw=="}, "filter_format": {"s": "SFdJTw=="}, "fused_ops": {"list": {"s": ["Qmlhc0FkZA==", "UmVsdQ=="]}}, "num_args": {"i": "1"}, "strides": {"list": {"i": ["1", "1", "1", "1"]}}, "TArgs": {"list": {"type": ["DT_FLOAT"]}}, "padding": {"s": "U0FNRQ=="}, "use_cudnn_on_gpu": {"b": true}, "leakyrelu_alpha": {"f": 0.2}, "epsilon": {"f": 0.0}, "T": {"type": "DT_FLOAT"}, "explicit_paddings": {"list": {}}, "dilations": {"list": {"i": ["1", "1", "1", "1"]}}}}, {"name": "StatefulPartitionedCall/end_to_end_model_1/shared_feature_extractor_3/conv2d_2_1/Relu", "op": "_FusedConv2D", "input": ["StatefulPartitionedCall/end_to_end_model_1/strided_slice_1", "StatefulPartitionedCall/end_to_end_model_1/shared_feature_extractor_3/conv2d_2_1/convolution/ReadVariableOp", "StatefulPartitionedCall/end_to_end_model_1/shared_feature_extractor_3/conv2d_2_1/Squeeze"], "device": "/device:CPU:0", "attr": {"num_host_args": {"i": "0"}, "data_format": {"s": "TkhXQw=="}, "filter_format": {"s": "SFdJTw=="}, "strides": {"list": {"i": ["1", "1", "1", "1"]}}, "num_args": {"i": "1"}, "fused_ops": {"list": {"s": ["Qmlhc0FkZA==", "UmVsdQ=="]}}, "TArgs": {"list": {"type": ["DT_FLOAT"]}}, "padding": {"s": "U0FNRQ=="}, "use_cudnn_on_gpu": {"b": true}, "leakyrelu_alpha": {"f": 0.2}, "epsilon": {"f": 0.0}, "T": {"type": "DT_FLOAT"}, "explicit_paddings": {"list": {}}, "dilations": {"list": {"i": ["1", "1", "1", "1"]}}}}, {"name": "StatefulPartitionedCall/end_to_end_model_1/shared_feature_extractor_5/conv2d_2_1/Relu", "op": "_FusedConv2D", "input": ["StatefulPartitionedCall/end_to_end_model_1/strided_slice", "StatefulPartitionedCall/end_to_end_model_1/shared_feature_extractor_5/conv2d_2_1/convolution/ReadVariableOp", "StatefulPartitionedCall/end_to_end_model_1/shared_feature_extractor_5/conv2d_2_1/Squeeze"], "device": "/device:CPU:0", "attr": {"num_host_args": {"i": "0"}, "data_format": {"s": "TkhXQw=="}, "filter_format": {"s": "SFdJTw=="}, "fused_ops": {"list": {"s": ["Qmlhc0FkZA==", "UmVsdQ=="]}}, "num_args": {"i": "1"}, "strides": {"list": {"i": ["1", "1", "1", "1"]}}, "TArgs": {"list": {"type": ["DT_FLOAT"]}}, "padding": {"s": "U0FNRQ=="}, "use_cudnn_on_gpu": {"b": true}, "leakyrelu_alpha": {"f": 0.2}, "epsilon": {"f": 0.0}, "T": {"type": "DT_FLOAT"}, "explicit_paddings": {"list": {}}, "dilations": {"list": {"i": ["1", "1", "1", "1"]}}}}, {"name": "StatefulPartitionedCall/end_to_end_model_1/shared_feature_extractor_1/max_pooling2d_5_1/MaxPool2d", "op": "MaxPool", "input": ["StatefulPartitionedCall/end_to_end_model_1/shared_feature_extractor_1/conv2d_2_1/Relu"], "attr": {"ksize": {"list": {"i": ["1", "2", "2", "1"]}}, "data_format": {"s": "TkhXQw=="}, "T": {"type": "DT_FLOAT"}, "explicit_paddings": {"list": {}}, "padding": {"s": "VkFMSUQ="}, "strides": {"list": {"i": ["1", "2", "2", "1"]}}}}, {"name": "StatefulPartitionedCall/end_to_end_model_1/shared_feature_extractor_3/max_pooling2d_5_1/MaxPool2d", "op": "MaxPool", "input": ["StatefulPartitionedCall/end_to_end_model_1/shared_feature_extractor_3/conv2d_2_1/Relu"], "attr": {"padding": {"s": "VkFMSUQ="}, "data_format": {"s": "TkhXQw=="}, "T": {"type": "DT_FLOAT"}, "explicit_paddings": {"list": {}}, "ksize": {"list": {"i": ["1", "2", "2", "1"]}}, "strides": {"list": {"i": ["1", "2", "2", "1"]}}}}, {"name": "StatefulPartitionedCall/end_to_end_model_1/shared_feature_extractor_5/max_pooling2d_5_1/MaxPool2d", "op": "MaxPool", "input": ["StatefulPartitionedCall/end_to_end_model_1/shared_feature_extractor_5/conv2d_2_1/Relu"], "attr": {"padding": {"s": "VkFMSUQ="}, "data_format": {"s": "TkhXQw=="}, "T": {"type": "DT_FLOAT"}, "explicit_paddings": {"list": {}}, "ksize": {"list": {"i": ["1", "2", "2", "1"]}}, "strides": {"list": {"i": ["1", "2", "2", "1"]}}}}, {"name": "StatefulPartitionedCall/end_to_end_model_1/shared_feature_extractor_1/separable_conv2d_4_1/separable_conv2d/depthwise", "op": "DepthwiseConv2dNative", "input": ["StatefulPartitionedCall/end_to_end_model_1/shared_feature_extractor_1/max_pooling2d_5_1/MaxPool2d", "StatefulPartitionedCall/end_to_end_model_1/shared_feature_extractor_1/separable_conv2d_4_1/separable_conv2d/ReadVariableOp"], "attr": {"padding": {"s": "U0FNRQ=="}, "data_format": {"s": "TkhXQw=="}, "T": {"type": "DT_FLOAT"}, "explicit_paddings": {"list": {}}, "dilations": {"list": {"i": ["1", "1", "1", "1"]}}, "strides": {"list": {"i": ["1", "1", "1", "1"]}}}}, {"name": "StatefulPartitionedCall/end_to_end_model_1/shared_feature_extractor_3/separable_conv2d_4_1/separable_conv2d/depthwise", "op": "DepthwiseConv2dNative", "input": ["StatefulPartitionedCall/end_to_end_model_1/shared_feature_extractor_3/max_pooling2d_5_1/MaxPool2d", "StatefulPartitionedCall/end_to_end_model_1/shared_feature_extractor_3/separable_conv2d_4_1/separable_conv2d/ReadVariableOp"], "attr": {"padding": {"s": "U0FNRQ=="}, "data_format": {"s": "TkhXQw=="}, "T": {"type": "DT_FLOAT"}, "explicit_paddings": {"list": {}}, "dilations": {"list": {"i": ["1", "1", "1", "1"]}}, "strides": {"list": {"i": ["1", "1", "1", "1"]}}}}, {"name": "StatefulPartitionedCall/end_to_end_model_1/shared_feature_extractor_5/separable_conv2d_4_1/separable_conv2d/depthwise", "op": "DepthwiseConv2dNative", "input": ["StatefulPartitionedCall/end_to_end_model_1/shared_feature_extractor_5/max_pooling2d_5_1/MaxPool2d", "StatefulPartitionedCall/end_to_end_model_1/shared_feature_extractor_5/separable_conv2d_4_1/separable_conv2d/ReadVariableOp"], "attr": {"padding": {"s": "U0FNRQ=="}, "data_format": {"s": "TkhXQw=="}, "T": {"type": "DT_FLOAT"}, "explicit_paddings": {"list": {}}, "dilations": {"list": {"i": ["1", "1", "1", "1"]}}, "strides": {"list": {"i": ["1", "1", "1", "1"]}}}}, {"name": "StatefulPartitionedCall/end_to_end_model_1/shared_feature_extractor_1/separable_conv2d_4_1/Relu", "op": "_FusedConv2D", "input": ["StatefulPartitionedCall/end_to_end_model_1/shared_feature_extractor_1/separable_conv2d_4_1/separable_conv2d/depthwise", "StatefulPartitionedCall/end_to_end_model_1/shared_feature_extractor_1/separable_conv2d_4_1/separable_conv2d/ReadVariableOp_1", "StatefulPartitionedCall/end_to_end_model_1/shared_feature_extractor_1/separable_conv2d_4_1/Squeeze"], "device": "/device:CPU:0", "attr": {"num_host_args": {"i": "0"}, "data_format": {"s": "TkhXQw=="}, "filter_format": {"s": "SFdJTw=="}, "strides": {"list": {"i": ["1", "1", "1", "1"]}}, "num_args": {"i": "1"}, "fused_ops": {"list": {"s": ["Qmlhc0FkZA==", "UmVsdQ=="]}}, "TArgs": {"list": {"type": ["DT_FLOAT"]}}, "padding": {"s": "VkFMSUQ="}, "use_cudnn_on_gpu": {"b": true}, "leakyrelu_alpha": {"f": 0.2}, "epsilon": {"f": 0.0}, "T": {"type": "DT_FLOAT"}, "explicit_paddings": {"list": {}}, "dilations": {"list": {"i": ["1", "1", "1", "1"]}}}}, {"name": "StatefulPartitionedCall/end_to_end_model_1/shared_feature_extractor_3/separable_conv2d_4_1/Relu", "op": "_FusedConv2D", "input": ["StatefulPartitionedCall/end_to_end_model_1/shared_feature_extractor_3/separable_conv2d_4_1/separable_conv2d/depthwise", "StatefulPartitionedCall/end_to_end_model_1/shared_feature_extractor_3/separable_conv2d_4_1/separable_conv2d/ReadVariableOp_1", "StatefulPartitionedCall/end_to_end_model_1/shared_feature_extractor_3/separable_conv2d_4_1/Squeeze"], "device": "/device:CPU:0", "attr": {"num_host_args": {"i": "0"}, "data_format": {"s": "TkhXQw=="}, "filter_format": {"s": "SFdJTw=="}, "fused_ops": {"list": {"s": ["Qmlhc0FkZA==", "UmVsdQ=="]}}, "num_args": {"i": "1"}, "strides": {"list": {"i": ["1", "1", "1", "1"]}}, "TArgs": {"list": {"type": ["DT_FLOAT"]}}, "padding": {"s": "VkFMSUQ="}, "use_cudnn_on_gpu": {"b": true}, "leakyrelu_alpha": {"f": 0.2}, "epsilon": {"f": 0.0}, "T": {"type": "DT_FLOAT"}, "explicit_paddings": {"list": {}}, "dilations": {"list": {"i": ["1", "1", "1", "1"]}}}}, {"name": "StatefulPartitionedCall/end_to_end_model_1/shared_feature_extractor_5/separable_conv2d_4_1/Relu", "op": "_FusedConv2D", "input": ["StatefulPartitionedCall/end_to_end_model_1/shared_feature_extractor_5/separable_conv2d_4_1/separable_conv2d/depthwise", "StatefulPartitionedCall/end_to_end_model_1/shared_feature_extractor_5/separable_conv2d_4_1/separable_conv2d/ReadVariableOp_1", "StatefulPartitionedCall/end_to_end_model_1/shared_feature_extractor_5/separable_conv2d_4_1/Squeeze"], "device": "/device:CPU:0", "attr": {"num_host_args": {"i": "0"}, "data_format": {"s": "TkhXQw=="}, "filter_format": {"s": "SFdJTw=="}, "fused_ops": {"list": {"s": ["Qmlhc0FkZA==", "UmVsdQ=="]}}, "num_args": {"i": "1"}, "strides": {"list": {"i": ["1", "1", "1", "1"]}}, "TArgs": {"list": {"type": ["DT_FLOAT"]}}, "padding": {"s": "VkFMSUQ="}, "use_cudnn_on_gpu": {"b": true}, "leakyrelu_alpha": {"f": 0.2}, "epsilon": {"f": 0.0}, "T": {"type": "DT_FLOAT"}, "explicit_paddings": {"list": {}}, "dilations": {"list": {"i": ["1", "1", "1", "1"]}}}}, {"name": "StatefulPartitionedCall/end_to_end_model_1/shared_feature_extractor_1/max_pooling2d_6_1/MaxPool2d", "op": "MaxPool", "input": ["StatefulPartitionedCall/end_to_end_model_1/shared_feature_extractor_1/separable_conv2d_4_1/Relu"], "attr": {"padding": {"s": "VkFMSUQ="}, "data_format": {"s": "TkhXQw=="}, "T": {"type": "DT_FLOAT"}, "explicit_paddings": {"list": {}}, "ksize": {"list": {"i": ["1", "2", "2", "1"]}}, "strides": {"list": {"i": ["1", "2", "2", "1"]}}}}, {"name": "StatefulPartitionedCall/end_to_end_model_1/shared_feature_extractor_3/max_pooling2d_6_1/MaxPool2d", "op": "MaxPool", "input": ["StatefulPartitionedCall/end_to_end_model_1/shared_feature_extractor_3/separable_conv2d_4_1/Relu"], "attr": {"padding": {"s": "VkFMSUQ="}, "data_format": {"s": "TkhXQw=="}, "T": {"type": "DT_FLOAT"}, "explicit_paddings": {"list": {}}, "ksize": {"list": {"i": ["1", "2", "2", "1"]}}, "strides": {"list": {"i": ["1", "2", "2", "1"]}}}}, {"name": "StatefulPartitionedCall/end_to_end_model_1/shared_feature_extractor_5/max_pooling2d_6_1/MaxPool2d", "op": "MaxPool", "input": ["StatefulPartitionedCall/end_to_end_model_1/shared_feature_extractor_5/separable_conv2d_4_1/Relu"], "attr": {"ksize": {"list": {"i": ["1", "2", "2", "1"]}}, "data_format": {"s": "TkhXQw=="}, "T": {"type": "DT_FLOAT"}, "explicit_paddings": {"list": {}}, "padding": {"s": "VkFMSUQ="}, "strides": {"list": {"i": ["1", "2", "2", "1"]}}}}, {"name": "StatefulPartitionedCall/end_to_end_model_1/shared_feature_extractor_1/separable_conv2d_5_1/separable_conv2d/depthwise", "op": "DepthwiseConv2dNative", "input": ["StatefulPartitionedCall/end_to_end_model_1/shared_feature_extractor_1/max_pooling2d_6_1/MaxPool2d", "StatefulPartitionedCall/end_to_end_model_1/shared_feature_extractor_1/separable_conv2d_5_1/separable_conv2d/ReadVariableOp"], "attr": {"padding": {"s": "U0FNRQ=="}, "data_format": {"s": "TkhXQw=="}, "T": {"type": "DT_FLOAT"}, "explicit_paddings": {"list": {}}, "dilations": {"list": {"i": ["1", "1", "1", "1"]}}, "strides": {"list": {"i": ["1", "1", "1", "1"]}}}}, {"name": "StatefulPartitionedCall/end_to_end_model_1/shared_feature_extractor_3/separable_conv2d_5_1/separable_conv2d/depthwise", "op": "DepthwiseConv2dNative", "input": ["StatefulPartitionedCall/end_to_end_model_1/shared_feature_extractor_3/max_pooling2d_6_1/MaxPool2d", "StatefulPartitionedCall/end_to_end_model_1/shared_feature_extractor_3/separable_conv2d_5_1/separable_conv2d/ReadVariableOp"], "attr": {"padding": {"s": "U0FNRQ=="}, "data_format": {"s": "TkhXQw=="}, "T": {"type": "DT_FLOAT"}, "explicit_paddings": {"list": {}}, "dilations": {"list": {"i": ["1", "1", "1", "1"]}}, "strides": {"list": {"i": ["1", "1", "1", "1"]}}}}, {"name": "StatefulPartitionedCall/end_to_end_model_1/shared_feature_extractor_5/separable_conv2d_5_1/separable_conv2d/depthwise", "op": "DepthwiseConv2dNative", "input": ["StatefulPartitionedCall/end_to_end_model_1/shared_feature_extractor_5/max_pooling2d_6_1/MaxPool2d", "StatefulPartitionedCall/end_to_end_model_1/shared_feature_extractor_5/separable_conv2d_5_1/separable_conv2d/ReadVariableOp"], "attr": {"padding": {"s": "U0FNRQ=="}, "data_format": {"s": "TkhXQw=="}, "T": {"type": "DT_FLOAT"}, "explicit_paddings": {"list": {}}, "dilations": {"list": {"i": ["1", "1", "1", "1"]}}, "strides": {"list": {"i": ["1", "1", "1", "1"]}}}}, {"name": "StatefulPartitionedCall/end_to_end_model_1/shared_feature_extractor_1/separable_conv2d_5_1/Relu", "op": "_FusedConv2D", "input": ["StatefulPartitionedCall/end_to_end_model_1/shared_feature_extractor_1/separable_conv2d_5_1/separable_conv2d/depthwise", "StatefulPartitionedCall/end_to_end_model_1/shared_feature_extractor_1/separable_conv2d_5_1/separable_conv2d/ReadVariableOp_1", "StatefulPartitionedCall/end_to_end_model_1/shared_feature_extractor_1/separable_conv2d_5_1/Squeeze"], "device": "/device:CPU:0", "attr": {"num_host_args": {"i": "0"}, "data_format": {"s": "TkhXQw=="}, "filter_format": {"s": "SFdJTw=="}, "strides": {"list": {"i": ["1", "1", "1", "1"]}}, "num_args": {"i": "1"}, "fused_ops": {"list": {"s": ["Qmlhc0FkZA==", "UmVsdQ=="]}}, "TArgs": {"list": {"type": ["DT_FLOAT"]}}, "padding": {"s": "VkFMSUQ="}, "use_cudnn_on_gpu": {"b": true}, "leakyrelu_alpha": {"f": 0.2}, "epsilon": {"f": 0.0}, "T": {"type": "DT_FLOAT"}, "explicit_paddings": {"list": {}}, "dilations": {"list": {"i": ["1", "1", "1", "1"]}}}}, {"name": "StatefulPartitionedCall/end_to_end_model_1/shared_feature_extractor_3/separable_conv2d_5_1/Relu", "op": "_FusedConv2D", "input": ["StatefulPartitionedCall/end_to_end_model_1/shared_feature_extractor_3/separable_conv2d_5_1/separable_conv2d/depthwise", "StatefulPartitionedCall/end_to_end_model_1/shared_feature_extractor_3/separable_conv2d_5_1/separable_conv2d/ReadVariableOp_1", "StatefulPartitionedCall/end_to_end_model_1/shared_feature_extractor_3/separable_conv2d_5_1/Squeeze"], "device": "/device:CPU:0", "attr": {"num_host_args": {"i": "0"}, "data_format": {"s": "TkhXQw=="}, "filter_format": {"s": "SFdJTw=="}, "strides": {"list": {"i": ["1", "1", "1", "1"]}}, "num_args": {"i": "1"}, "fused_ops": {"list": {"s": ["Qmlhc0FkZA==", "UmVsdQ=="]}}, "TArgs": {"list": {"type": ["DT_FLOAT"]}}, "padding": {"s": "VkFMSUQ="}, "use_cudnn_on_gpu": {"b": true}, "leakyrelu_alpha": {"f": 0.2}, "epsilon": {"f": 0.0}, "T": {"type": "DT_FLOAT"}, "explicit_paddings": {"list": {}}, "dilations": {"list": {"i": ["1", "1", "1", "1"]}}}}, {"name": "StatefulPartitionedCall/end_to_end_model_1/shared_feature_extractor_5/separable_conv2d_5_1/Relu", "op": "_FusedConv2D", "input": ["StatefulPartitionedCall/end_to_end_model_1/shared_feature_extractor_5/separable_conv2d_5_1/separable_conv2d/depthwise", "StatefulPartitionedCall/end_to_end_model_1/shared_feature_extractor_5/separable_conv2d_5_1/separable_conv2d/ReadVariableOp_1", "StatefulPartitionedCall/end_to_end_model_1/shared_feature_extractor_5/separable_conv2d_5_1/Squeeze"], "device": "/device:CPU:0", "attr": {"num_host_args": {"i": "0"}, "data_format": {"s": "TkhXQw=="}, "filter_format": {"s": "SFdJTw=="}, "strides": {"list": {"i": ["1", "1", "1", "1"]}}, "num_args": {"i": "1"}, "fused_ops": {"list": {"s": ["Qmlhc0FkZA==", "UmVsdQ=="]}}, "TArgs": {"list": {"type": ["DT_FLOAT"]}}, "padding": {"s": "VkFMSUQ="}, "use_cudnn_on_gpu": {"b": true}, "leakyrelu_alpha": {"f": 0.2}, "epsilon": {"f": 0.0}, "T": {"type": "DT_FLOAT"}, "explicit_paddings": {"list": {}}, "dilations": {"list": {"i": ["1", "1", "1", "1"]}}}}, {"name": "StatefulPartitionedCall/end_to_end_model_1/shared_feature_extractor_1/max_pooling2d_7_1/MaxPool2d", "op": "MaxPool", "input": ["StatefulPartitionedCall/end_to_end_model_1/shared_feature_extractor_1/separable_conv2d_5_1/Relu"], "attr": {"ksize": {"list": {"i": ["1", "2", "2", "1"]}}, "data_format": {"s": "TkhXQw=="}, "T": {"type": "DT_FLOAT"}, "explicit_paddings": {"list": {}}, "padding": {"s": "VkFMSUQ="}, "strides": {"list": {"i": ["1", "2", "2", "1"]}}}}, {"name": "StatefulPartitionedCall/end_to_end_model_1/shared_feature_extractor_3/max_pooling2d_7_1/MaxPool2d", "op": "MaxPool", "input": ["StatefulPartitionedCall/end_to_end_model_1/shared_feature_extractor_3/separable_conv2d_5_1/Relu"], "attr": {"padding": {"s": "VkFMSUQ="}, "data_format": {"s": "TkhXQw=="}, "T": {"type": "DT_FLOAT"}, "explicit_paddings": {"list": {}}, "ksize": {"list": {"i": ["1", "2", "2", "1"]}}, "strides": {"list": {"i": ["1", "2", "2", "1"]}}}}, {"name": "StatefulPartitionedCall/end_to_end_model_1/shared_feature_extractor_5/max_pooling2d_7_1/MaxPool2d", "op": "MaxPool", "input": ["StatefulPartitionedCall/end_to_end_model_1/shared_feature_extractor_5/separable_conv2d_5_1/Relu"], "attr": {"padding": {"s": "VkFMSUQ="}, "data_format": {"s": "TkhXQw=="}, "T": {"type": "DT_FLOAT"}, "explicit_paddings": {"list": {}}, "ksize": {"list": {"i": ["1", "2", "2", "1"]}}, "strides": {"list": {"i": ["1", "2", "2", "1"]}}}}, {"name": "StatefulPartitionedCall/end_to_end_model_1/shared_feature_extractor_1/separable_conv2d_6_1/separable_conv2d/depthwise", "op": "DepthwiseConv2dNative", "input": ["StatefulPartitionedCall/end_to_end_model_1/shared_feature_extractor_1/max_pooling2d_7_1/MaxPool2d", "StatefulPartitionedCall/end_to_end_model_1/shared_feature_extractor_1/separable_conv2d_6_1/separable_conv2d/ReadVariableOp"], "attr": {"padding": {"s": "U0FNRQ=="}, "data_format": {"s": "TkhXQw=="}, "T": {"type": "DT_FLOAT"}, "explicit_paddings": {"list": {}}, "dilations": {"list": {"i": ["1", "1", "1", "1"]}}, "strides": {"list": {"i": ["1", "1", "1", "1"]}}}}, {"name": "StatefulPartitionedCall/end_to_end_model_1/shared_feature_extractor_3/separable_conv2d_6_1/separable_conv2d/depthwise", "op": "DepthwiseConv2dNative", "input": ["StatefulPartitionedCall/end_to_end_model_1/shared_feature_extractor_3/max_pooling2d_7_1/MaxPool2d", "StatefulPartitionedCall/end_to_end_model_1/shared_feature_extractor_3/separable_conv2d_6_1/separable_conv2d/ReadVariableOp"], "attr": {"padding": {"s": "U0FNRQ=="}, "data_format": {"s": "TkhXQw=="}, "T": {"type": "DT_FLOAT"}, "explicit_paddings": {"list": {}}, "dilations": {"list": {"i": ["1", "1", "1", "1"]}}, "strides": {"list": {"i": ["1", "1", "1", "1"]}}}}, {"name": "StatefulPartitionedCall/end_to_end_model_1/shared_feature_extractor_5/separable_conv2d_6_1/separable_conv2d/depthwise", "op": "DepthwiseConv2dNative", "input": ["StatefulPartitionedCall/end_to_end_model_1/shared_feature_extractor_5/max_pooling2d_7_1/MaxPool2d", "StatefulPartitionedCall/end_to_end_model_1/shared_feature_extractor_5/separable_conv2d_6_1/separable_conv2d/ReadVariableOp"], "attr": {"padding": {"s": "U0FNRQ=="}, "data_format": {"s": "TkhXQw=="}, "T": {"type": "DT_FLOAT"}, "explicit_paddings": {"list": {}}, "dilations": {"list": {"i": ["1", "1", "1", "1"]}}, "strides": {"list": {"i": ["1", "1", "1", "1"]}}}}, {"name": "StatefulPartitionedCall/end_to_end_model_1/shared_feature_extractor_1/separable_conv2d_6_1/Relu", "op": "_FusedConv2D", "input": ["StatefulPartitionedCall/end_to_end_model_1/shared_feature_extractor_1/separable_conv2d_6_1/separable_conv2d/depthwise", "StatefulPartitionedCall/end_to_end_model_1/shared_feature_extractor_1/separable_conv2d_6_1/separable_conv2d/ReadVariableOp_1", "StatefulPartitionedCall/end_to_end_model_1/shared_feature_extractor_1/separable_conv2d_6_1/Squeeze"], "device": "/device:CPU:0", "attr": {"num_host_args": {"i": "0"}, "data_format": {"s": "TkhXQw=="}, "filter_format": {"s": "SFdJTw=="}, "fused_ops": {"list": {"s": ["Qmlhc0FkZA==", "UmVsdQ=="]}}, "num_args": {"i": "1"}, "strides": {"list": {"i": ["1", "1", "1", "1"]}}, "TArgs": {"list": {"type": ["DT_FLOAT"]}}, "padding": {"s": "VkFMSUQ="}, "use_cudnn_on_gpu": {"b": true}, "leakyrelu_alpha": {"f": 0.2}, "epsilon": {"f": 0.0}, "T": {"type": "DT_FLOAT"}, "explicit_paddings": {"list": {}}, "dilations": {"list": {"i": ["1", "1", "1", "1"]}}}}, {"name": "StatefulPartitionedCall/end_to_end_model_1/shared_feature_extractor_3/separable_conv2d_6_1/Relu", "op": "_FusedConv2D", "input": ["StatefulPartitionedCall/end_to_end_model_1/shared_feature_extractor_3/separable_conv2d_6_1/separable_conv2d/depthwise", "StatefulPartitionedCall/end_to_end_model_1/shared_feature_extractor_3/separable_conv2d_6_1/separable_conv2d/ReadVariableOp_1", "StatefulPartitionedCall/end_to_end_model_1/shared_feature_extractor_3/separable_conv2d_6_1/Squeeze"], "device": "/device:CPU:0", "attr": {"num_host_args": {"i": "0"}, "data_format": {"s": "TkhXQw=="}, "filter_format": {"s": "SFdJTw=="}, "fused_ops": {"list": {"s": ["Qmlhc0FkZA==", "UmVsdQ=="]}}, "num_args": {"i": "1"}, "strides": {"list": {"i": ["1", "1", "1", "1"]}}, "TArgs": {"list": {"type": ["DT_FLOAT"]}}, "padding": {"s": "VkFMSUQ="}, "use_cudnn_on_gpu": {"b": true}, "leakyrelu_alpha": {"f": 0.2}, "epsilon": {"f": 0.0}, "T": {"type": "DT_FLOAT"}, "explicit_paddings": {"list": {}}, "dilations": {"list": {"i": ["1", "1", "1", "1"]}}}}, {"name": "StatefulPartitionedCall/end_to_end_model_1/shared_feature_extractor_5/separable_conv2d_6_1/Relu", "op": "_FusedConv2D", "input": ["StatefulPartitionedCall/end_to_end_model_1/shared_feature_extractor_5/separable_conv2d_6_1/separable_conv2d/depthwise", "StatefulPartitionedCall/end_to_end_model_1/shared_feature_extractor_5/separable_conv2d_6_1/separable_conv2d/ReadVariableOp_1", "StatefulPartitionedCall/end_to_end_model_1/shared_feature_extractor_5/separable_conv2d_6_1/Squeeze"], "device": "/device:CPU:0", "attr": {"num_host_args": {"i": "0"}, "data_format": {"s": "TkhXQw=="}, "filter_format": {"s": "SFdJTw=="}, "fused_ops": {"list": {"s": ["Qmlhc0FkZA==", "UmVsdQ=="]}}, "num_args": {"i": "1"}, "strides": {"list": {"i": ["1", "1", "1", "1"]}}, "TArgs": {"list": {"type": ["DT_FLOAT"]}}, "padding": {"s": "VkFMSUQ="}, "use_cudnn_on_gpu": {"b": true}, "leakyrelu_alpha": {"f": 0.2}, "epsilon": {"f": 0.0}, "T": {"type": "DT_FLOAT"}, "explicit_paddings": {"list": {}}, "dilations": {"list": {"i": ["1", "1", "1", "1"]}}}}, {"name": "StatefulPartitionedCall/end_to_end_model_1/shared_feature_extractor_1/max_pooling2d_8_1/MaxPool2d", "op": "MaxPool", "input": ["StatefulPartitionedCall/end_to_end_model_1/shared_feature_extractor_1/separable_conv2d_6_1/Relu"], "attr": {"ksize": {"list": {"i": ["1", "2", "2", "1"]}}, "data_format": {"s": "TkhXQw=="}, "T": {"type": "DT_FLOAT"}, "explicit_paddings": {"list": {}}, "padding": {"s": "VkFMSUQ="}, "strides": {"list": {"i": ["1", "2", "2", "1"]}}}}, {"name": "StatefulPartitionedCall/end_to_end_model_1/shared_feature_extractor_3/max_pooling2d_8_1/MaxPool2d", "op": "MaxPool", "input": ["StatefulPartitionedCall/end_to_end_model_1/shared_feature_extractor_3/separable_conv2d_6_1/Relu"], "attr": {"ksize": {"list": {"i": ["1", "2", "2", "1"]}}, "data_format": {"s": "TkhXQw=="}, "T": {"type": "DT_FLOAT"}, "explicit_paddings": {"list": {}}, "padding": {"s": "VkFMSUQ="}, "strides": {"list": {"i": ["1", "2", "2", "1"]}}}}, {"name": "StatefulPartitionedCall/end_to_end_model_1/shared_feature_extractor_5/max_pooling2d_8_1/MaxPool2d", "op": "MaxPool", "input": ["StatefulPartitionedCall/end_to_end_model_1/shared_feature_extractor_5/separable_conv2d_6_1/Relu"], "attr": {"padding": {"s": "VkFMSUQ="}, "data_format": {"s": "TkhXQw=="}, "T": {"type": "DT_FLOAT"}, "explicit_paddings": {"list": {}}, "ksize": {"list": {"i": ["1", "2", "2", "1"]}}, "strides": {"list": {"i": ["1", "2", "2", "1"]}}}}, {"name": "StatefulPartitionedCall/end_to_end_model_1/shared_feature_extractor_1/separable_conv2d_7_1/separable_conv2d/depthwise", "op": "DepthwiseConv2dNative", "input": ["StatefulPartitionedCall/end_to_end_model_1/shared_feature_extractor_1/max_pooling2d_8_1/MaxPool2d", "StatefulPartitionedCall/end_to_end_model_1/shared_feature_extractor_1/separable_conv2d_7_1/separable_conv2d/ReadVariableOp"], "attr": {"padding": {"s": "U0FNRQ=="}, "data_format": {"s": "TkhXQw=="}, "T": {"type": "DT_FLOAT"}, "explicit_paddings": {"list": {}}, "dilations": {"list": {"i": ["1", "1", "1", "1"]}}, "strides": {"list": {"i": ["1", "1", "1", "1"]}}}}, {"name": "StatefulPartitionedCall/end_to_end_model_1/shared_feature_extractor_3/separable_conv2d_7_1/separable_conv2d/depthwise", "op": "DepthwiseConv2dNative", "input": ["StatefulPartitionedCall/end_to_end_model_1/shared_feature_extractor_3/max_pooling2d_8_1/MaxPool2d", "StatefulPartitionedCall/end_to_end_model_1/shared_feature_extractor_3/separable_conv2d_7_1/separable_conv2d/ReadVariableOp"], "attr": {"padding": {"s": "U0FNRQ=="}, "data_format": {"s": "TkhXQw=="}, "T": {"type": "DT_FLOAT"}, "explicit_paddings": {"list": {}}, "dilations": {"list": {"i": ["1", "1", "1", "1"]}}, "strides": {"list": {"i": ["1", "1", "1", "1"]}}}}, {"name": "StatefulPartitionedCall/end_to_end_model_1/shared_feature_extractor_5/separable_conv2d_7_1/separable_conv2d/depthwise", "op": "DepthwiseConv2dNative", "input": ["StatefulPartitionedCall/end_to_end_model_1/shared_feature_extractor_5/max_pooling2d_8_1/MaxPool2d", "StatefulPartitionedCall/end_to_end_model_1/shared_feature_extractor_5/separable_conv2d_7_1/separable_conv2d/ReadVariableOp"], "attr": {"padding": {"s": "U0FNRQ=="}, "data_format": {"s": "TkhXQw=="}, "T": {"type": "DT_FLOAT"}, "explicit_paddings": {"list": {}}, "dilations": {"list": {"i": ["1", "1", "1", "1"]}}, "strides": {"list": {"i": ["1", "1", "1", "1"]}}}}, {"name": "StatefulPartitionedCall/end_to_end_model_1/shared_feature_extractor_1/separable_conv2d_7_1/Relu", "op": "_FusedConv2D", "input": ["StatefulPartitionedCall/end_to_end_model_1/shared_feature_extractor_1/separable_conv2d_7_1/separable_conv2d/depthwise", "StatefulPartitionedCall/end_to_end_model_1/shared_feature_extractor_1/separable_conv2d_7_1/separable_conv2d/ReadVariableOp_1", "StatefulPartitionedCall/end_to_end_model_1/shared_feature_extractor_1/separable_conv2d_7_1/Squeeze"], "device": "/device:CPU:0", "attr": {"num_host_args": {"i": "0"}, "data_format": {"s": "TkhXQw=="}, "filter_format": {"s": "SFdJTw=="}, "fused_ops": {"list": {"s": ["Qmlhc0FkZA==", "UmVsdQ=="]}}, "num_args": {"i": "1"}, "strides": {"list": {"i": ["1", "1", "1", "1"]}}, "TArgs": {"list": {"type": ["DT_FLOAT"]}}, "padding": {"s": "VkFMSUQ="}, "use_cudnn_on_gpu": {"b": true}, "leakyrelu_alpha": {"f": 0.2}, "epsilon": {"f": 0.0}, "T": {"type": "DT_FLOAT"}, "explicit_paddings": {"list": {}}, "dilations": {"list": {"i": ["1", "1", "1", "1"]}}}}, {"name": "StatefulPartitionedCall/end_to_end_model_1/shared_feature_extractor_3/separable_conv2d_7_1/Relu", "op": "_FusedConv2D", "input": ["StatefulPartitionedCall/end_to_end_model_1/shared_feature_extractor_3/separable_conv2d_7_1/separable_conv2d/depthwise", "StatefulPartitionedCall/end_to_end_model_1/shared_feature_extractor_3/separable_conv2d_7_1/separable_conv2d/ReadVariableOp_1", "StatefulPartitionedCall/end_to_end_model_1/shared_feature_extractor_3/separable_conv2d_7_1/Squeeze"], "device": "/device:CPU:0", "attr": {"num_host_args": {"i": "0"}, "data_format": {"s": "TkhXQw=="}, "filter_format": {"s": "SFdJTw=="}, "fused_ops": {"list": {"s": ["Qmlhc0FkZA==", "UmVsdQ=="]}}, "num_args": {"i": "1"}, "strides": {"list": {"i": ["1", "1", "1", "1"]}}, "TArgs": {"list": {"type": ["DT_FLOAT"]}}, "padding": {"s": "VkFMSUQ="}, "use_cudnn_on_gpu": {"b": true}, "leakyrelu_alpha": {"f": 0.2}, "epsilon": {"f": 0.0}, "T": {"type": "DT_FLOAT"}, "explicit_paddings": {"list": {}}, "dilations": {"list": {"i": ["1", "1", "1", "1"]}}}}, {"name": "StatefulPartitionedCall/end_to_end_model_1/shared_feature_extractor_5/separable_conv2d_7_1/Relu", "op": "_FusedConv2D", "input": ["StatefulPartitionedCall/end_to_end_model_1/shared_feature_extractor_5/separable_conv2d_7_1/separable_conv2d/depthwise", "StatefulPartitionedCall/end_to_end_model_1/shared_feature_extractor_5/separable_conv2d_7_1/separable_conv2d/ReadVariableOp_1", "StatefulPartitionedCall/end_to_end_model_1/shared_feature_extractor_5/separable_conv2d_7_1/Squeeze"], "device": "/device:CPU:0", "attr": {"num_host_args": {"i": "0"}, "data_format": {"s": "TkhXQw=="}, "filter_format": {"s": "SFdJTw=="}, "fused_ops": {"list": {"s": ["Qmlhc0FkZA==", "UmVsdQ=="]}}, "num_args": {"i": "1"}, "strides": {"list": {"i": ["1", "1", "1", "1"]}}, "TArgs": {"list": {"type": ["DT_FLOAT"]}}, "padding": {"s": "VkFMSUQ="}, "use_cudnn_on_gpu": {"b": true}, "leakyrelu_alpha": {"f": 0.2}, "epsilon": {"f": 0.0}, "T": {"type": "DT_FLOAT"}, "explicit_paddings": {"list": {}}, "dilations": {"list": {"i": ["1", "1", "1", "1"]}}}}, {"name": "StatefulPartitionedCall/end_to_end_model_1/shared_feature_extractor_1/max_pooling2d_9_1/MaxPool2d", "op": "MaxPool", "input": ["StatefulPartitionedCall/end_to_end_model_1/shared_feature_extractor_1/separable_conv2d_7_1/Relu"], "attr": {"padding": {"s": "VkFMSUQ="}, "data_format": {"s": "TkhXQw=="}, "T": {"type": "DT_FLOAT"}, "explicit_paddings": {"list": {}}, "ksize": {"list": {"i": ["1", "2", "2", "1"]}}, "strides": {"list": {"i": ["1", "2", "2", "1"]}}}}, {"name": "StatefulPartitionedCall/end_to_end_model_1/shared_feature_extractor_3/max_pooling2d_9_1/MaxPool2d", "op": "MaxPool", "input": ["StatefulPartitionedCall/end_to_end_model_1/shared_feature_extractor_3/separable_conv2d_7_1/Relu"], "attr": {"ksize": {"list": {"i": ["1", "2", "2", "1"]}}, "data_format": {"s": "TkhXQw=="}, "T": {"type": "DT_FLOAT"}, "explicit_paddings": {"list": {}}, "padding": {"s": "VkFMSUQ="}, "strides": {"list": {"i": ["1", "2", "2", "1"]}}}}, {"name": "StatefulPartitionedCall/end_to_end_model_1/shared_feature_extractor_5/max_pooling2d_9_1/MaxPool2d", "op": "MaxPool", "input": ["StatefulPartitionedCall/end_to_end_model_1/shared_feature_extractor_5/separable_conv2d_7_1/Relu"], "attr": {"padding": {"s": "VkFMSUQ="}, "data_format": {"s": "TkhXQw=="}, "T": {"type": "DT_FLOAT"}, "explicit_paddings": {"list": {}}, "ksize": {"list": {"i": ["1", "2", "2", "1"]}}, "strides": {"list": {"i": ["1", "2", "2", "1"]}}}}, {"name": "StatefulPartitionedCall/end_to_end_model_1/concatenate_1_1/concat", "op": "ConcatV2", "input": ["StatefulPartitionedCall/end_to_end_model_1/shared_feature_extractor_1/max_pooling2d_9_1/MaxPool2d", "StatefulPartitionedCall/end_to_end_model_1/shared_feature_extractor_3/max_pooling2d_9_1/MaxPool2d", "StatefulPartitionedCall/end_to_end_model_1/shared_feature_extractor_5/max_pooling2d_9_1/MaxPool2d", "StatefulPartitionedCall/end_to_end_model_1/concatenate_1_1/concat/axis"], "attr": {"N": {"i": "3"}, "T": {"type": "DT_FLOAT"}, "Tidx": {"type": "DT_INT32"}}}, {"name": "StatefulPartitionedCall/end_to_end_model_1/classifier_head_1/conv2d_3_1/Relu", "op": "_FusedConv2D", "input": ["StatefulPartitionedCall/end_to_end_model_1/concatenate_1_1/concat", "StatefulPartitionedCall/end_to_end_model_1/classifier_head_1/conv2d_3_1/convolution/ReadVariableOp", "StatefulPartitionedCall/end_to_end_model_1/classifier_head_1/conv2d_3_1/Squeeze"], "device": "/device:CPU:0", "attr": {"num_host_args": {"i": "0"}, "data_format": {"s": "TkhXQw=="}, "filter_format": {"s": "SFdJTw=="}, "fused_ops": {"list": {"s": ["Qmlhc0FkZA==", "UmVsdQ=="]}}, "num_args": {"i": "1"}, "strides": {"list": {"i": ["1", "1", "1", "1"]}}, "TArgs": {"list": {"type": ["DT_FLOAT"]}}, "padding": {"s": "U0FNRQ=="}, "use_cudnn_on_gpu": {"b": true}, "leakyrelu_alpha": {"f": 0.2}, "epsilon": {"f": 0.0}, "T": {"type": "DT_FLOAT"}, "explicit_paddings": {"list": {}}, "dilations": {"list": {"i": ["1", "1", "1", "1"]}}}}, {"name": "StatefulPartitionedCall/end_to_end_model_1/classifier_head_1/global_average_pooling2d_1_1/Mean", "op": "Mean", "input": ["StatefulPartitionedCall/end_to_end_model_1/classifier_head_1/conv2d_3_1/Relu", "StatefulPartitionedCall/end_to_end_model_1/classifier_head_1/global_average_pooling2d_1_1/Mean/reduction_indices"], "attr": {"T": {"type": "DT_FLOAT"}, "Tidx": {"type": "DT_INT32"}, "keep_dims": {"b": false}}}, {"name": "StatefulPartitionedCall/end_to_end_model_1/classifier_head_1/class_output_1/BiasAdd", "op": "_FusedMatMul", "input": ["StatefulPartitionedCall/end_to_end_model_1/classifier_head_1/global_average_pooling2d_1_1/Mean", "StatefulPartitionedCall/end_to_end_model_1/classifier_head_1/class_output_1/Cast/ReadVariableOp", "StatefulPartitionedCall/end_to_end_model_1/classifier_head_1/class_output_1/BiasAdd/ReadVariableOp"], "device": "/device:CPU:0", "attr": {"transpose_a": {"b": false}, "transpose_b": {"b": false}, "fused_ops": {"list": {"s": ["Qmlhc0FkZA=="]}}, "num_args": {"i": "1"}, "leakyrelu_alpha": {"f": 0.2}, "epsilon": {"f": 0.0}, "T": {"type": "DT_FLOAT"}}}, {"name": "StatefulPartitionedCall/end_to_end_model_1/classifier_head_1/class_output_1/Softmax", "op": "Softmax", "input": ["StatefulPartitionedCall/end_to_end_model_1/classifier_head_1/class_output_1/BiasAdd"], "attr": {"T": {"type": "DT_FLOAT"}}}, {"name": "Identity", "op": "Identity", "input": ["StatefulPartitionedCall/end_to_end_model_1/classifier_head_1/class_output_1/Softmax"], "attr": {"T": {"type": "DT_FLOAT"}}}], "library": {}, "versions": {"producer": 1994}}, "weightsManifest": [{"paths": ["group1-shard1of1.bin"], "weights": [{"name": "StatefulPartitionedCall/end_to_end_model_1/strided_slice_2/stack", "shape": [2], "dtype": "int32"}, {"name": "StatefulPartitionedCall/end_to_end_model_1/strided_slice_2/stack_1", "shape": [2], "dtype": "int32"}, {"name": "StatefulPartitionedCall/end_to_end_model_1/strided_slice_2/stack_2", "shape": [2], "dtype": "int32"}, {"name": "StatefulPartitionedCall/end_to_end_model_1/shared_feature_extractor_1/conv2d_2_1/convolution/ReadVariableOp", "shape": [3, 3, 1, 8], "dtype": "float32"}, {"name": "StatefulPartitionedCall/end_to_end_model_1/shared_feature_extractor_1/conv2d_2_1/Squeeze", "shape": [8], "dtype": "float32"}, {"name": "StatefulPartitionedCall/end_to_end_model_1/shared_feature_extractor_1/separable_conv2d_4_1/separable_conv2d/ReadVariableOp", "shape": [3, 3, 8, 1], "dtype": "float32"}, {"name": "StatefulPartitionedCall/end_to_end_model_1/shared_feature_extractor_1/separable_conv2d_4_1/separable_conv2d/ReadVariableOp_1", "shape": [1, 1, 8, 24], "dtype": "float32"}, {"name": "StatefulPartitionedCall/end_to_end_model_1/shared_feature_extractor_1/separable_conv2d_4_1/Squeeze", "shape": [24], "dtype": "float32"}, {"name": "StatefulPartitionedCall/end_to_end_model_1/shared_feature_extractor_1/separable_conv2d_5_1/separable_conv2d/ReadVariableOp", "shape": [3, 3, 24, 1], "dtype": "float32"}, {"name": "StatefulPartitionedCall/end_to_end_model_1/shared_feature_extractor_1/separable_conv2d_5_1/separable_conv2d/ReadVariableOp_1", "shape": [1, 1, 24, 24], "dtype": "float32"}, {"name": "StatefulPartitionedCall/end_to_end_model_1/shared_feature_extractor_1/separable_conv2d_5_1/Squeeze", "shape": [24], "dtype": "float32"}, {"name": "StatefulPartitionedCall/end_to_end_model_1/shared_feature_extractor_1/separable_conv2d_6_1/separable_conv2d/ReadVariableOp", "shape": [3, 3, 24, 1], "dtype": "float32"}, {"name": "StatefulPartitionedCall/end_to_end_model_1/shared_feature_extractor_1/separable_conv2d_6_1/separable_conv2d/ReadVariableOp_1", "shape": [1, 1, 24, 24], "dtype": "float32"}, {"name": "StatefulPartitionedCall/end_to_end_model_1/shared_feature_extractor_1/separable_conv2d_6_1/Squeeze", "shape": [24], "dtype": "float32"}, {"name": "StatefulPartitionedCall/end_to_end_model_1/shared_feature_extractor_1/separable_conv2d_7_1/separable_conv2d/ReadVariableOp", "shape": [3, 3, 24, 1], "dtype": "float32"}, {"name": "StatefulPartitionedCall/end_to_end_model_1/shared_feature_extractor_1/separable_conv2d_7_1/separable_conv2d/ReadVariableOp_1", "shape": [1, 1, 24, 16], "dtype": "float32"}, {"name": "StatefulPartitionedCall/end_to_end_model_1/shared_feature_extractor_1/separable_conv2d_7_1/Squeeze", "shape": [16], "dtype": "float32"}, {"name": "StatefulPartitionedCall/end_to_end_model_1/strided_slice_1/stack", "shape": [2], "dtype": "int32"}, {"name": "StatefulPartitionedCall/end_to_end_model_1/strided_slice_1/stack_1", "shape": [2], "dtype": "int32"}, {"name": "StatefulPartitionedCall/end_to_end_model_1/strided_slice_1/stack_2", "shape": [2], "dtype": "int32"}, {"name": "StatefulPartitionedCall/end_to_end_model_1/shared_feature_extractor_3/conv2d_2_1/convolution/ReadVariableOp", "shape": [3, 3, 1, 8], "dtype": "float32"}, {"name": "StatefulPartitionedCall/end_to_end_model_1/shared_feature_extractor_3/conv2d_2_1/Squeeze", "shape": [8], "dtype": "float32"}, {"name": "StatefulPartitionedCall/end_to_end_model_1/shared_feature_extractor_3/separable_conv2d_4_1/separable_conv2d/ReadVariableOp", "shape": [3, 3, 8, 1], "dtype": "float32"}, {"name": "StatefulPartitionedCall/end_to_end_model_1/shared_feature_extractor_3/separable_conv2d_4_1/separable_conv2d/ReadVariableOp_1", "shape": [1, 1, 8, 24], "dtype": "float32"}, {"name": "StatefulPartitionedCall/end_to_end_model_1/shared_feature_extractor_3/separable_conv2d_4_1/Squeeze", "shape": [24], "dtype": "float32"}, {"name": "StatefulPartitionedCall/end_to_end_model_1/shared_feature_extractor_3/separable_conv2d_5_1/separable_conv2d/ReadVariableOp", "shape": [3, 3, 24, 1], "dtype": "float32"}, {"name": "StatefulPartitionedCall/end_to_end_model_1/shared_feature_extractor_3/separable_conv2d_5_1/separable_conv2d/ReadVariableOp_1", "shape": [1, 1, 24, 24], "dtype": "float32"}, {"name": "StatefulPartitionedCall/end_to_end_model_1/shared_feature_extractor_3/separable_conv2d_5_1/Squeeze", "shape": [24], "dtype": "float32"}, {"name": "StatefulPartitionedCall/end_to_end_model_1/shared_feature_extractor_3/separable_conv2d_6_1/separable_conv2d/ReadVariableOp", "shape": [3, 3, 24, 1], "dtype": "float32"}, {"name": "StatefulPartitionedCall/end_to_end_model_1/shared_feature_extractor_3/separable_conv2d_6_1/separable_conv2d/ReadVariableOp_1", "shape": [1, 1, 24, 24], "dtype": "float32"}, {"name": "StatefulPartitionedCall/end_to_end_model_1/shared_feature_extractor_3/separable_conv2d_6_1/Squeeze", "shape": [24], "dtype": "float32"}, {"name": "StatefulPartitionedCall/end_to_end_model_1/shared_feature_extractor_3/separable_conv2d_7_1/separable_conv2d/ReadVariableOp", "shape": [3, 3, 24, 1], "dtype": "float32"}, {"name": "StatefulPartitionedCall/end_to_end_model_1/shared_feature_extractor_3/separable_conv2d_7_1/separable_conv2d/ReadVariableOp_1", "shape": [1, 1, 24, 16], "dtype": "float32"}, {"name": "StatefulPartitionedCall/end_to_end_model_1/shared_feature_extractor_3/separable_conv2d_7_1/Squeeze", "shape": [16], "dtype": "float32"}, {"name": "StatefulPartitionedCall/end_to_end_model_1/strided_slice/stack", "shape": [2], "dtype": "int32"}, {"name": "StatefulPartitionedCall/end_to_end_model_1/strided_slice/stack_1", "shape": [2], "dtype": "int32"}, {"name": "StatefulPartitionedCall/end_to_end_model_1/strided_slice/stack_2", "shape": [2], "dtype": "int32"}, {"name": "StatefulPartitionedCall/end_to_end_model_1/shared_feature_extractor_5/conv2d_2_1/convolution/ReadVariableOp", "shape": [3, 3, 1, 8], "dtype": "float32"}, {"name": "StatefulPartitionedCall/end_to_end_model_1/shared_feature_extractor_5/conv2d_2_1/Squeeze", "shape": [8], "dtype": "float32"}, {"name": "StatefulPartitionedCall/end_to_end_model_1/shared_feature_extractor_5/separable_conv2d_4_1/separable_conv2d/ReadVariableOp", "shape": [3, 3, 8, 1], "dtype": "float32"}, {"name": "StatefulPartitionedCall/end_to_end_model_1/shared_feature_extractor_5/separable_conv2d_4_1/separable_conv2d/ReadVariableOp_1", "shape": [1, 1, 8, 24], "dtype": "float32"}, {"name": "StatefulPartitionedCall/end_to_end_model_1/shared_feature_extractor_5/separable_conv2d_4_1/Squeeze", "shape": [24], "dtype": "float32"}, {"name": "StatefulPartitionedCall/end_to_end_model_1/shared_feature_extractor_5/separable_conv2d_5_1/separable_conv2d/ReadVariableOp", "shape": [3, 3, 24, 1], "dtype": "float32"}, {"name": "StatefulPartitionedCall/end_to_end_model_1/shared_feature_extractor_5/separable_conv2d_5_1/separable_conv2d/ReadVariableOp_1", "shape": [1, 1, 24, 24], "dtype": "float32"}, {"name": "StatefulPartitionedCall/end_to_end_model_1/shared_feature_extractor_5/separable_conv2d_5_1/Squeeze", "shape": [24], "dtype": "float32"}, {"name": "StatefulPartitionedCall/end_to_end_model_1/shared_feature_extractor_5/separable_conv2d_6_1/separable_conv2d/ReadVariableOp", "shape": [3, 3, 24, 1], "dtype": "float32"}, {"name": "StatefulPartitionedCall/end_to_end_model_1/shared_feature_extractor_5/separable_conv2d_6_1/separable_conv2d/ReadVariableOp_1", "shape": [1, 1, 24, 24], "dtype": "float32"}, {"name": "StatefulPartitionedCall/end_to_end_model_1/shared_feature_extractor_5/separable_conv2d_6_1/Squeeze", "shape": [24], "dtype": "float32"}, {"name": "StatefulPartitionedCall/end_to_end_model_1/shared_feature_extractor_5/separable_conv2d_7_1/separable_conv2d/ReadVariableOp", "shape": [3, 3, 24, 1], "dtype": "float32"}, {"name": "StatefulPartitionedCall/end_to_end_model_1/shared_feature_extractor_5/separable_conv2d_7_1/separable_conv2d/ReadVariableOp_1", "shape": [1, 1, 24, 16], "dtype": "float32"}, {"name": "StatefulPartitionedCall/end_to_end_model_1/shared_feature_extractor_5/separable_conv2d_7_1/Squeeze", "shape": [16], "dtype": "float32"}, {"name": "StatefulPartitionedCall/end_to_end_model_1/concatenate_1_1/concat/axis", "shape": [], "dtype": "int32"}, {"name": "StatefulPartitionedCall/end_to_end_model_1/classifier_head_1/conv2d_3_1/convolution/ReadVariableOp", "shape": [1, 1, 48, 16], "dtype": "float32"}, {"name": "StatefulPartitionedCall/end_to_end_model_1/classifier_head_1/conv2d_3_1/Squeeze", "shape": [16], "dtype": "float32"}, {"name": "StatefulPartitionedCall/end_to_end_model_1/classifier_head_1/global_average_pooling2d_1_1/Mean/reduction_indices", "shape": [2], "dtype": "int32"}, {"name": "StatefulPartitionedCall/end_to_end_model_1/classifier_head_1/class_output_1/Cast/ReadVariableOp", "shape": [16, 4], "dtype": "float32"}, {"name": "StatefulPartitionedCall/end_to_end_model_1/classifier_head_1/class_output_1/BiasAdd/ReadVariableOp", "shape": [4], "dtype": "float32"}]}]}